16
>> Train dataset :  data/KsponSpeech/KsponSpeech_train.json
>> Test dataset :  ['data/KsponSpeech/KsponSpeech_test.json']
Loading checkpoint model models/AIHub_train/LSTM_512x3_512x2_AIHub_train/final.pth
Model loaded
Seq2Seq(
  (encoder): EncoderRNN(
    (conv): MaskConv(
      (seq_module): Sequential(
        (0): Conv2d(1, 32, kernel_size=(41, 11), stride=(2, 2), padding=(20, 5))
        (1): BatchNorm2d(32, eps=1e-05, momentum=0.1, affine=True, track_running_stats=True)
        (2): Hardtanh(min_val=0, max_val=20, inplace=True)
        (3): Conv2d(32, 32, kernel_size=(21, 11), stride=(2, 1), padding=(10, 5))
        (4): BatchNorm2d(32, eps=1e-05, momentum=0.1, affine=True, track_running_stats=True)
        (5): Hardtanh(min_val=0, max_val=20, inplace=True)
      )
    )
    (rnn): LSTM(1312, 512, num_layers=3, dropout=0.3, bidirectional=True)
  )
  (decoder): DecoderRNN(
    (rnn): LSTM(1536, 512, num_layers=2, batch_first=True, dropout=0.3)
    (embedding): Embedding(2003, 512)
    (input_dropout): Dropout(p=0.3, inplace=False)
    (attention): Attention(
      (conv): Conv1d(1, 512, kernel_size=(3,), stride=(1,), padding=(1,))
      (W): Linear(in_features=512, out_features=512, bias=False)
      (V): Linear(in_features=1024, out_features=512, bias=False)
      (fc): Linear(in_features=512, out_features=1, bias=True)
      (tanh): Tanh()
      (softmax): Softmax(dim=-1)
    )
    (fc): Linear(in_features=1536, out_features=2003, bias=True)
  )
)
Number of parameters: 31523060
Epoch: [1][1/38125]	Loss 0.3506	Cer 53.5452
Epoch: [1][2/38125]	Loss 0.1831	Cer 188.0866
Epoch: [1][3/38125]	Loss 0.2639	Cer 36.9811
Epoch: [1][4/38125]	Loss 0.1334	Cer 96.0212
Epoch: [1][5/38125]	Loss 0.2682	Cer 63.0390
Epoch: [1][6/38125]	Loss 0.2964	Cer 29.4643
Epoch: [1][7/38125]	Loss 0.3125	Cer 35.4167
Epoch: [1][8/38125]	Loss 0.2335	Cer 42.2043
…
