16
>> Train dataset :  data/KsponSpeech/KsponSpeech_train.json
>> Test dataset :  ['data/KsponSpeech/KsponSpeech_eval_clean.json']
Seq2Seq(
  (encoder): EncoderRNN(
    (conv): MaskConv(
      (seq_module): Sequential(
        (0): Conv2d(1, 32, kernel_size=(41, 11), stride=(2, 2), padding=(20, 5))
        (1): BatchNorm2d(32, eps=1e-05, momentum=0.1, affine=True, track_running_stats=True)
        (2): Hardtanh(min_val=0, max_val=20, inplace=True)
        (3): Conv2d(32, 32, kernel_size=(21, 11), stride=(2, 1), padding=(10, 5))
        (4): BatchNorm2d(32, eps=1e-05, momentum=0.1, affine=True, track_running_stats=True)
        (5): Hardtanh(min_val=0, max_val=20, inplace=True)
      )
    )
    (rnn): LSTM(1312, 512, num_layers=3, dropout=0.3, bidirectional=True)
  )
  (decoder): DecoderRNN(
    (rnn): LSTM(1536, 512, num_layers=2, batch_first=True, dropout=0.3)
    (embedding): Embedding(2003, 512)
    (input_dropout): Dropout(p=0.3, inplace=False)
    (attention): Attention(
      (conv): Conv1d(1, 512, kernel_size=(3,), stride=(1,), padding=(1,))
      (W): Linear(in_features=512, out_features=512, bias=False)
      (V): Linear(in_features=1024, out_features=512, bias=False)
      (fc): Linear(in_features=512, out_features=1, bias=True)
      (tanh): Tanh()
      (softmax): Softmax(dim=-1)
    )
    (fc): Linear(in_features=1536, out_features=2003, bias=True)
  )
)
Number of parameters: 31523060
Epoch: [1][1/38750]	Loss 7.6025	Cer 299.5110
Epoch: [1][2/38750]	Loss 7.3379	Cer 575.4513
Epoch: [1][3/38750]	Loss 7.0260	Cer 386.4151
Epoch: [1][4/38750]	Loss 6.4118	Cer 670.5570
Epoch: [1][5/38750]	Loss 5.0019	Cer 377.8234
Epoch: [1][6/38750]	Loss 4.3983	Cer 257.1429
Epoch: [1][7/38750]	Loss 3.3004	Cer 322.2222
Epoch: [1][8/38750]	Loss 3.1632	Cer 339.7849
…
